# Ablation config for comparison:
# keep the P2 fusion path in the neck, but remove the P2 detection output.
# This isolates the effect of P2 feature fusion on the final P3/P4/P5 detectors.

nc: 80
scales:
  # [depth, width, max_channels]
  n: [0.50, 0.25, 1024]
  s: [0.50, 0.50, 1024]
  m: [0.50, 1.00, 512]
  l: [1.00, 1.00, 512]
  x: [1.00, 1.50, 512]

backbone:
  # [from, repeats, module, args]
  - [-1, 1, Conv, [64, 3, 2]]   # 0-P1/2
  - [-1, 1, Conv, [128, 3, 2]]  # 1-P2/4
  - [-1, 2, C3k2, [256, False, 0.25]]
  - [-1, 1, Conv, [256, 3, 2]]  # 3-P3/8
  - [-1, 2, C3k2, [512, False, 0.25]]
  - [-1, 1, Conv, [512, 3, 2]]  # 5-P4/16
  - [-1, 2, C3k2, [512, True]]
  - [-1, 1, Conv, [1024, 3, 2]] # 7-P5/32
  - [-1, 2, C3k2, [1024, True]]
  - [-1, 1, SPPF, [1024, 5]]    # 9
  - [-1, 2, C2PSA, [1024]]      # 10

head:
  - [-1, 1, nn.Upsample, [None, 2, "nearest"]]
  - [[-1, 6], 1, Concat, [1]]
  - [-1, 2, C3k2, [512, False]] # 13

  - [-1, 1, nn.Upsample, [None, 2, "nearest"]]
  - [[-1, 4], 1, Concat, [1]]
  - [-1, 2, C3k2, [256, False]] # 16 (P3/8)

  - [-1, 1, nn.Upsample, [None, 2, "nearest"]]
  - [[-1, 2], 1, Concat, [1]]
  - [-1, 2, C3k2, [128, False]] # 19 (P2/4 fusion only)

  - [-1, 1, Conv, [128, 3, 2]]
  - [[-1, 16], 1, Concat, [1]]
  - [-1, 2, C3k2, [256, False]] # 22 (P3/8)

  - [-1, 1, Conv, [256, 3, 2]]
  - [[-1, 13], 1, Concat, [1]]
  - [-1, 2, C3k2, [512, False]] # 25 (P4/16)

  - [-1, 1, Conv, [512, 3, 2]]
  - [[-1, 10], 1, Concat, [1]]
  - [-1, 2, C3k2, [1024, True]] # 28 (P5/32)

  - [[22, 25, 28], 1, OBB, [nc, 1]] # Detect(P3, P4, P5)
